Posture_Detection_Model.tflite (tflite, 4868 bytes, 7 tensors)

sequential_7/dense_26/BiasAdd/ReadVariableOp f4 [16]
00000000: 1296 313f 992f 4ebe 09e7 cb3e e302 25bf
00000010: 3abd 153f 0744 0c3f 439f e33e 4357 2b3f
00000020: 3b19 16bd b4ce a8be ef2b 413f ff55 9bbe
00000030: fae5 233f 9d36 2d3f 6adf 373f dc47 0f3e
0.69369614 -0.20135345 0.39824703 -0.6445753 0.5849186 0.547913 0.44457445 0.66930026
-0.036645155 -0.32970202 0.7545766 -0.30339047 0.6402279 0.6766146 0.7182528 0.13992256

sequential_7/dense_25/BiasAdd/ReadVariableOp f4 [16]
00000000: 1ac6 ff3e bb27 133e 68dd 96be 12c6 b53e
00000010: e9b3 ea3e 70f4 15be 31ea 1a3d bac3 463d
00000020: 6e07 553e a600 9d3e fbc0 c0bd 1c61 1c3f
00000030: 7d35 80bd 2dfc 09be 89ea 75bd 0855 723e
0.49955827 0.14370625 -0.29465795 0.35502678 0.45840386 -0.14644027 0.037821 0.048526503
0.20803615 0.30664557 -0.09411808 0.6108568 -0.06260202 -0.13475104 -0.060038123 0.2366525

sequential_7/dense_24/BiasAdd/ReadVariableOp f4 [16]
00000000: 7ae2 043f 4217 d13d a619 87bd 780c dc3c
00000010: 4dd0 00be 21ce 253e 63a4 e1bd 4e10 16bf
00000020: 54d6 febe d579 7a3d e08d d7bd cfee cfbd
00000030: 8a24 a53e 1c1c 09be aae4 073e d34e 053f
0.51908076 0.10209514 -0.06596689 0.026861414 -0.1257946 0.16191913 -0.110176824 -0.5861863
-0.49772894 0.061151344 -0.105251074 -0.10152971 0.3225444 -0.13389629 0.13270822 0.520734

sequential_7/dense_24/MatMul f4 [16, 3]
00000000: dd80 923f d2e9 6fbe 2dfe 8abd 9e49 ffbe
00000010: f022 413f 0c48 4bbe b3f0 f43e 314e e7be
00000020: a364 833f 0759 cdbc edce 8ebd b5ed 92bd
00000030: 9088 5c3e 53fa cbbe d548 413f 032f c33e
00000040: d2be d33e 5e34 68be a2cd 463f e020 9a3d
00000050: 9863 81bf 05d5 1a3f d613 f63e 7ee0 ea3d
00000060: f6d6 573d bfe3 4ebd 6f3f 26bf db08 0cbe
00000070: 1fc4 1d3c 81bd a53f 41b7 ab3e 4c64 733f
00000080: 59ec 023f 8e3b fbbc d3c0 5e3f dfba 5e3f
00000090: 844d 673f a49e 68be ca77 98bd e90f a1bd
000000a0: f3d7 d8be 0c59 1a3f b6da 513f 03e1 9ebe
000000b0: abb7 7b3f d204 35bf 2efa a8be 178b febd
1.1445576 -0.23429039 -0.067867614 -0.49860853 0.75443935 -0.19851702 0.4783989 -0.45176843
1.0265087 -0.025066866 -0.06973062 -0.07174245 0.2153647 -0.3983942 0.7550176 0.38121805
0.41356522 -0.22676226 0.7765752 0.07525802 -1.0108519 0.6048129 0.4806201 0.114686
0.052695237 -0.050510164 -0.6494054 -0.13675253 0.009629278 1.2948457 0.3353825 0.95074916
0.5114189 -0.030668046 0.87012976 0.8700389 0.90352654 -0.22716767 -0.07444723 -0.07864363
-0.42352256 0.60292125 0.8197435 -0.31031045 0.9832713 -0.7071048 -0.33003372 -0.12428873

sequential_7/dense_25/MatMul f4 [16, 16]
00000000: d1ff 903e f705 9abe fedb 8bbf c496 8a3e
00000010: acdf f4bf c66e 093f c6e4 34be fdfa 863f
00000020: f0e8 d33e 2299 663e 9863 37be 23a3 eebf
00000030: 08d0 83bd 0abc 64be 3d0a 35bd 05d6 59be
00000040: 4765 85bf ce3e 0cbf 8067 433f 9428 89bf
00000050: af60 ad3e c697 0c3d cc5c 293e c057 bcbe
00000060: a741 fabd 6b9e 353d 1dc5 e93e c986 0b3f
00000070: fef9 f13e 5519 b8be 0e54 6e3e 2547 963d
00000080: 1e25 a83e d4df 36be 44be 11bd f3c3 05bf
00000090: 1b11 0d3e d549 323d 9ae2 d1be caef 523d
000000a0: 8dca 1dbe 991c 083f c179 423e e1b5 023f
000000b0: 040b 533e 9c09 283e b63e 533e c855 403d
000000c0: 96db 20bf 6219 99bc f3c9 433e e98d fa3e
000000d0: 52b3 c53e 9706 48bd 6b96 763e 98a8 033e
000000e0: 56a4 9dbe 9cbc 1abf c234 923e 78bf 873e
000000f0: c9cc 5a3e 21c2 a8be cdbc b43d 489c 7c3d
00000100: 0435 243b e7e7 b8be 5e1a a83e 32cd 183f
00000110: 0b60 d33e ab1e bf3e 1183 25be 2681 1abf
00000120: a80e 7f3c fa0e a73d a529 013e fd34 ff3e
00000130: 5cd7 193f 15fd cbbe 24be 1dbc 3a1c 3dbe
00000140: c108 3d3f 8b25 da3e 63d1 debe aae7 37bf
00000150: f7a3 ca3c ea88 01bf fad8 30bf 1aff 643e
00000160: cff7 6abf cc45 a93e 25ac 1a3e 4c92 793e
00000170: 832a 9fbe bb09 5c3e 7c5d 6a3e 853e 4abd
00000180: c1b8 163f 2c82 39be c1b1 f13e b1c7 cebe
00000190: b74d 773d 31bf a93e 47fa 85be 6f62 c4be
000001a0: 7293 1dbe a92b 7a3e 96d8 363f 2b1e 093f
000001b0: a546 ce3e 47bf f13d 22c6 de3e 2b7d 88bd
000001c0: 3bf3 0dbe 4344 bcbf f350 ef3e 5a69 e0bc
000001d0: d5ba 3bbf c857 83be ef84 9cbe bcaa 70bd
000001e0: e227 933e bb66 0bc0 3530 623e 8fc4 ee3e
000001f0: b0eb 113e b743 a3be f6a8 0f3e 3079 a2be
00000200: b516 f43d e5de dbbe 160e 903e ebf6 4d3e
00000210: 96a3 cabf 2fbf 1c3e 8854 afbe e35e aabe
00000220: 8007 f03e 4541 bfbf 22a3 67bd f00c 953d
00000230: a376 af3d 6935 41be dfc7 9abe cbdc 67bf
00000240: 4c7d 603e 9a7e c8be dc26 9d3e d821 c73e
00000250: c71c 3d3e 0c7f 543e 1134 29be bd69 773e
00000260: fa24 423d 2d8b 16bf 0476 86be 6571 e53d
00000270: 686c 95be 22c0 d9be 5d12 d8be a37c adbf
00000280: 3d3f 72be b9ca 7ebe 4fe5 b63e dc98 ca3d
00000290: 5185 12c0 21f8 7e3e 1cf6 f03e 69ed 11bd
000002a0: 0855 bdbf 4cc0 06c0 ee9c 9d3e c37d 95bf
000002b0: d7ef 7dbe 5d9a 1abf 6316 923d 727f 13bf
000002c0: 6f25 133f 025c 833e ead3 a6be 3a30 44bf
000002d0: 9e6c c5bf dd97 d7be 0108 47be f235 013f
000002e0: d8c0 fa3e 3a87 ae3e cb83 67bf 0a78 c9bf
000002f0: 6a8d 19bf b6b7 3abe 755e 343e 6eb4 b6bd
00000300: 0b74 cc3e 8546 823f 8d7c d13d 4b84 29bf
00000310: 6a68 893f 0bfe 03bf ff43 e7be 09b9 04bf
00000320: 0834 94bf 5699 de3e 4068 0e3f 7f87 5b3f
00000330: ab8e 7d3e a493 673f 17a5 f13d 3404 193f
00000340: c79c c33e 2ff4 c83e 7128 91bd d2e7 1f3f
00000350: c49a fe3e a047 21be 9c7c 99be 05b9 e2bd
00000360: 37a8 5ebe 69e6 acbd 4247 7c3e 6348 a83c
00000370: 3852 1abe dc6b 223d 1840 183d d09f b73c
00000380: 3df1 383e 4a1d 593e b70e 893f 27f1 3bbf
00000390: ce4e 6f3f 7258 40bf 7674 51be 752e 0d3e
000003a0: ffd1 24bf bb16 ca3e a8a1 0ebe ab96 c73f
000003b0: 79c0 a2bf 3fb5 a23e d9d0 453f 74d9 acbe
000003c0: ed30 1bbf e29f 833d e1a6 e03e 2197 563f
000003d0: 0894 783f 4a9f 85ba 7f0e a9bc 85a7 37bf
000003e0: 541f e13b f5b0 753d 55a7 50be 7f08 ed3e
000003f0: 8019 c53e 4420 32bc d676 ba3e 8817 22be
0.28320172 -0.30082676 -1.0926511 0.2706815 -1.9130759 0.5368465 -0.17665395 1.0545346
0.41388655 0.22519353 -0.17909086 -1.8643535 -0.06436163 -0.22337356 -0.044199217 -0.21273048
-1.0421532 -0.5478333 0.76329803 -1.0715508 0.33862826 0.03432443 0.16539305 -0.36785698
-0.122195534 0.044340532 0.45658198 0.5450254 0.4726104 -0.35956827 0.23274252 0.073377885
0.32840818 -0.17858821 -0.035581842 -0.5225212 0.13776056 0.043527443 -0.40993196 0.051498212
-0.15409298 0.53168637 0.18991758 0.51058775 0.20609671 0.16409916 0.20629391 0.046956807
-0.6283506 -0.018688861 0.19120006 0.48936394 0.38613373 -0.04883441 0.24080817 0.12857282
-0.3078944 -0.60444045 0.28555876 0.26513267 0.21367182 -0.3296061 0.088250734 0.06167248
0.0025056014 -0.36114427 0.32832617 0.59688103 0.41284212 0.37328085 -0.16163279 -0.60353315
0.015567459 0.081571534 0.12613542 0.49845114 0.6009424 -0.39841524 -0.009627853 -0.18467799
0.7384148 0.42606768 -0.43519124 -0.71837866 0.024736388 -0.5059954 -0.6908108 0.22362939
-0.91784376 0.33061063 0.1510473 0.24372214 -0.3108712 0.21488087 0.22887224 -0.04937603
0.5887566 -0.18116063 0.47205928 -0.40386727 0.06037685 0.3315368 -0.2616751 -0.3835635
-0.15388277 0.24430718 0.71424234 0.5356166 0.40288273 0.118040614 0.43510538 -0.06664499
-0.13862316 -1.4708332 0.46741447 -0.027393986 -0.7333196 -0.2565291 -0.3057017 -0.058756575
0.28741366 -2.1781452 0.22088702 0.46634337 0.14250064 -0.318876 0.14029297 -0.31733084
0.119183935 -0.42943493 0.28135747 0.20113723 -1.5831172 0.15307306 -0.3424418 -0.33275518
0.46880722 -1.4941794 -0.05655206 0.07277858 0.0856755 -0.1886803 -0.30230615 -0.9057128
0.21922797 -0.3915909 0.3069371 0.38893008 0.18468009 0.2075159 -0.16523768 0.2416143
0.047398545 -0.58806115 -0.26261914 0.11203269 -0.2918427 -0.42529398 -0.4220151 -1.3553661
-0.23656936 -0.2488202 0.35721824 0.09892437 -2.289387 0.24899341 0.47062767 -0.035626803
-1.4791574 -2.1054869 0.3078379 -1.1679004 -0.24798523 -0.6039179 0.07133176 -0.5761634
0.57478994 0.25656134 -0.32583553 -0.7663609 -1.5423772 -0.4210805 -0.19436647 0.5047294
0.48975253 0.34087545 -0.90435475 -1.5739758 -0.59981406 -0.18234143 0.17614157 -0.08921133
0.39932284 1.0177771 0.10228834 -0.6621749 1.073499 -0.51559514 -0.45169064 -0.5184484
-1.1578379 0.4347636 0.5562782 0.85753626 0.24761455 0.90459657 0.117990665 0.5977204
0.3820555 0.39248797 -0.07087792 0.62463105 0.49727452 -0.15749979 -0.29977882 -0.11070446
-0.21743856 -0.08442385 0.24636558 0.02054233 -0.15070426 0.039653644 0.0371705 0.022415072
0.18060775 0.21202579 1.0707616 -0.73414844 0.9347962 -0.75134957 -0.20454583 0.13787253
-0.6438293 0.39470467 -0.13928854 1.5592855 -1.2714988 0.31778905 0.772718 -0.33759654
-0.6062153 0.064269796 0.43877319 0.83824354 0.9710088 -0.0010194567 -0.020636795 -0.7173999
0.0068701897 0.059983213 -0.20376332 0.46295545 0.38496017 -0.010871951 0.3641879 -0.15829289

sequential_7/dense_26/MatMul f4 [16, 16]
00000000: b55a 65be f11d 803e 1476 06be e5f4 6b3e
00000010: 61c6 b53e a6b3 d73d 3131 58be b991 2cc0
00000020: 2c5b 17c0 3707 8ebf fd39 00be ac5a 8dbf
00000030: 30eb 923e 3bdf 993e bac6 e5be 078e e53e
00000040: 6a07 543f f232 dfbf acb8 39be e8cf 83be
00000050: ff39 3cbd 8153 ad3e 3c3c 3ebe 5bc3 393f
00000060: 586d 723f ef5c aa3f 6f31 6c3d 0667 833f
00000070: b8d3 4abe 4e04 19bf 452d f83e c3d4 60bf
00000080: e58e f93e 4e14 bb3f 28d5 9f3e 1144 663e
00000090: 85ad 8c3e 77f8 f3be d48f 93be f1eb a6c0
000000a0: a030 3ebf 93f8 f0bf a69b c5be 19a3 763e
000000b0: 95c8 f4be 16a7 f53f 6eda 08c1 92b1 963e
000000c0: b5ca 563f 9f09 95bd 4ece edbe ad2d cb3d
000000d0: f763 1c3e 6b4d 303e 610f 43be 7d43 8b3f
000000e0: 3671 a93e cbe4 b33f 53aa 2c3f df67 243f
000000f0: 8fba e63e 4d8a 93bd f991 e43e 5089 563e
00000100: f497 22bf 2dea 213f e96a 723d c613 f03e
00000110: 3cc7 ea3d a866 073e 15c1 02bf 1faa 8cbe
00000120: d1c2 a9bf 38a3 babf c54a 823e e6eb 1abf
00000130: fc18 57bc b871 363e 1d59 7a3e 27e7 f33d
00000140: c84d 15bf f384 d83e cab4 523e 1e71 bfbd
00000150: 7083 05be 0d44 16be 3dc5 06be b174 90bf
00000160: cd4d 50bf 1eca 97bf 9608 343f e758 18bf
00000170: 1e6c 243e dd0a 3bbe a1c5 43be fd80 a33e
00000180: 63c3 77bf f062 983b ad42 dc3d 66d2 a73e
00000190: 7c9d 39bc 7939 fe3e 8106 dbbe 63f1 0abe
000001a0: 7aa2 473f 515f 863e b03a 143f 5d42 40bf
000001b0: d024 ad3e 6852 43be 2c77 5f3e 9087 8a3e
000001c0: 39ed d2be 379d 7c3e a2bd 203e ccd2 b23e
000001d0: e503 893d 4b3b b23e 130f 54be 4dd8 a8c0
000001e0: ad7f 0ac0 6bb9 c6be b13b 2fbf b6dc 3abf
000001f0: 17dc 1a3e dc63 0ebe 576d b6be bc12 f03e
00000200: e65e dcbe 48f9 3f3e 9ec0 683c 1ec4 0abe
00000210: d145 cbbe 0330 eabe 2c72 b2bd 7767 843e
00000220: 685b 63bd 86b8 3c3e 77e5 bc3e 9247 9cbe
00000230: 4977 a0be 5f98 c2be c732 853e cc11 b33d
00000240: c560 023f 4798 90bf d46d 9cbe 17ce 9abf
00000250: 29ce 15bf 37f2 68bb 84ea a73d 8cd3 8f3e
00000260: 769c 8a3e 8cb2 fd3f d172 95bd ade0 623f
00000270: 4322 663e 4207 cebe e01a 813e d25d 73bf
00000280: f71e 1abf 1249 b33e f5ee 12be b6cf 3a3e
00000290: e839 803e 177c 783e 09ea 1b3e 9be0 26c0
000002a0: 1a08 86bf 2949 26c0 525e 0fbe 4c3e 7bbe
000002b0: 51a6 6bbc 4750 16bd 5c42 85be 74af 083e
000002c0: cdd3 0c3d d02d a1be 07f1 803c 3797 b0bd
000002d0: 516d 35bf 0426 263c d7fb 8d3d 9b04 d3be
000002e0: 898f 34bc 618a 0a3c 7eac e6bd 5f5a 86be
000002f0: f6c7 06bf 4ae2 353e a8c9 e5be f044 aabe
00000300: 125d c7be 2d19 593f 275a 073e a85c 053d
00000310: 1cdd f63e 845f fabe 5a28 933e bd2b aebf
00000320: b833 88be 0f29 aabf 30be 8f3e 9ec0 40be
00000330: f2cb e1be 686d 08be 4d5b d13d ef07 8b3d
00000340: 1721 3cbe e50e 2b3d 0c37 933e 5f0c 753d
00000350: a31d de3e 2265 cb3e 12d5 87be 1c3f 95bf
00000360: 55fa 70bf c347 68bf def6 893c 7fe8 23bf
00000370: 201d 563e 7f59 b7be d940 0fbe 37ba 2b3e
00000380: d69a bc3d 12d2 f63d ade9 c53e f57c b53c
00000390: 8db6 8cbe 20bb c83c fcad d5bc 1297 89bf
000003a0: 29c4 96bf c288 6ebf 564f 2d3f e7a2 57bf
000003b0: 6823 bebd 90e1 e83d 7217 4b3e a8ab 9f3e
000003c0: 3181 803d 04c0 1bbe 009f 5cbd 83e5 073e
000003d0: f433 53bd b0cb 1c3f ec72 983e 2b3e b33d
000003e0: 2dd3 dcbe d38f 833e 9116 823d 638a 4ebd
000003f0: f4c5 35be e031 2a3e 1e34 95be df9f 55bd
-0.22397883 0.25022843 -0.1313098 0.23042639 0.35502914 0.10532312 -0.21112515 -2.6963942
-2.3649397 -1.1095952 -0.12522121 -1.1043296 0.2869506 0.30053124 -0.4487818 0.4483492
0.8282381 -1.7437422 -0.18136853 -0.25744557 -0.045953747 0.3385277 -0.18577665 0.72563714
0.94698095 1.3309611 0.05766433 1.0265815 -0.19807327 -0.59772193 0.48472038 -0.8782465
0.48741832 1.4615571 0.31217313 0.22486903 0.27476135 -0.476505 -0.2882067 -5.2163014
-0.74292946 -1.8825859 -0.38595313 0.24085654 -0.47809282 1.9191616 -8.553328 0.2943235
0.83903056 -0.07277226 -0.4644646 0.09920821 0.15272509 0.17217033 -0.19048835 1.0879971
0.33094186 1.4054197 0.67447394 0.64220995 0.45064208 -0.07204113 0.44642618 0.20950818
-0.6351311 0.6324795 0.05918399 0.46890086 0.11463782 0.13222754 -0.5107587 -0.27473542
-1.3262578 -1.458106 0.2544767 -0.605162 -0.013128515 0.17816818 0.24448057 0.11909323
-0.5832181 0.42288932 0.20576778 -0.09347747 -0.1303842 -0.14674397 -0.13161178 -1.1285611
-0.81368715 -1.1858556 0.703256 -0.59510654 0.16056868 -0.18265863 -0.19118358 0.31934348
-0.9678251 0.004650466 0.10754905 0.3277771 -0.011329051 0.49653223 -0.427784 -0.13568644
0.77982295 0.26244596 0.5790205 -0.7510126 0.33817148 -0.19074404 0.21822804 0.2705655
-0.41196612 0.24669348 0.15697339 0.3492645 0.06690196 0.34810862 -0.20708875 -5.276404
-2.1640427 -0.38813338 -0.68450457 -0.7299303 0.1512302 -0.13905281 -0.35630295 0.46889293
-0.43041152 0.18747437 0.01420608 -0.13551375 -0.39701703 -0.45739755 -0.08713183 0.25860187
-0.055507094 0.18429765 0.36893818 -0.30523354 -0.31341007 -0.38006875 0.26015303 0.08743629
0.5092891 -1.1296471 -0.30552542 -1.2094144 -0.585177 -0.0035544762 0.08199027 0.28091085
0.27072495 1.9820113 -0.0729729 0.8862408 0.22474007 -0.40239912 0.25215816 -0.95065033
-0.602035 0.35016686 -0.14348967 0.18243298 0.2504418 0.24266087 0.15225996 -2.6074588
-1.0471222 -2.5982153 -0.14000824 -0.24535483 -0.014382915 -0.036697652 -0.2602719 0.1334818
0.034381676 -0.31480265 0.01573993 -0.08622592 -0.7086993 0.0101409 0.069328 -0.4121445
-0.01102055 0.008455844 -0.11263369 -0.26240823 -0.52648866 0.17762104 -0.44880414 -0.3325572
-0.38938195 0.8480404 0.13217984 0.032559067 0.48215568 -0.48900998 0.28741723 -1.3607098
-0.26601958 -1.329378 0.2807479 -0.18823478 -0.4410091 -0.13322985 0.10222492 0.067886226
-0.18371998 0.04176225 0.28752935 0.05982625 0.43381986 0.39725596 -0.26529747 -1.1659884
-0.94131976 -0.907345 0.016841348 -0.64026636 0.20909548 -0.35810468 -0.13989581 0.16770254
0.0920922 0.120517865 0.38654843 0.02215431 -0.27483025 0.02450329 -0.026083939 -1.0749228
-1.1778613 -0.93177426 0.6769918 -0.84232944 -0.09284097 0.11371148 0.19833162 0.3118565
0.06274641 -0.15209967 -0.05386257 0.13271146 -0.05156322 0.612483 0.29775178 0.08752092
-0.43129864 0.25695667 0.063519605 -0.050424945 -0.17751294 0.16620588 -0.29141325 -0.052154418

sequential_7/dense_27/MatMul f4 [1, 16]
00000000: c994 363f 9faa 65bf f4ce 7940 17ee 3cbf
00000010: f617 033e 3634 563e 190a 353f 0bca a33e
00000020: 69dd e53e e7b6 2bbf 75a6 263f 9a79 71be
00000030: bc92 cf3d 480b 183e c0f4 073d c18b c83e
0.7132078 -0.8971347 3.9032564 -0.73800796 0.12802109 0.20918354 0.7071853 0.31990084
0.44895485 -0.6707596 0.65097743 -0.23581544 0.10135409 0.14848053 0.033192396 0.39169124
